…
To enable the following instructions: AVX2 FMA, in other operations, rebuild TensorFlow with the appropriate compiler flags.
2023-11-27 21:02:52.655867: W tensorflow/compiler/tf2tensorrt/utils/py_utils.cc:38] TF-TRT Warning: Could not find TensorRT
Reloading Tuner from hyperparams/sinus: first real try GREEDY/tuner0.json
Dagon try GREEDY
300
Model: "model"
_________________________________________________________________
 Layer (type)                Output Shape              Param #   
=================================================================
 input_1 (InputLayer)        [(None, 1)]               0         
                                                                 
 dense (Dense)               (None, 64)                128       
                                                                 
 dense_1 (Dense)             (None, 64)                4160      
                                                                 
 dense_2 (Dense)             (None, 64)                4160      
                                                                 
 dense_3 (Dense)             (None, 64)                4160      
                                                                 
 dense_4 (Dense)             (None, 1)                 65        
                                                                 
=================================================================
Total params: 12673 (49.50 KB)
Trainable params: 12673 (49.50 KB)
Non-trainable params: 0 (0.00 Byte)
_________________________________________________________________
None
Model: "model_1"
_________________________________________________________________
 Layer (type)                Output Shape              Param #   
=================================================================
 input_2 (InputLayer)        [(None, 1)]               0         
                                                                 
 dense_5 (Dense)             (None, 64)                128       
                                                                 
 dense_6 (Dense)             (None, 64)                4160      
                                                                 
 dense_7 (Dense)             (None, 64)                4160      
                                                                 
 dense_8 (Dense)             (None, 64)                4160      
                                                                 
 dense_9 (Dense)             (None, 1)                 65        
                                                                 
=================================================================
Total params: 12673 (49.50 KB)
Trainable params: 12673 (49.50 KB)
Non-trainable params: 0 (0.00 Byte)
_________________________________________________________________
None
Model: "model_2"
_________________________________________________________________
 Layer (type)                Output Shape              Param #   
=================================================================
 input_3 (InputLayer)        [(None, 1)]               0         
                                                                 
 dense_10 (Dense)            (None, 64)                128       
                                                                 
 dense_11 (Dense)            (None, 64)                4160      
                                                                 
 dense_12 (Dense)            (None, 64)                4160      
                                                                 
 dense_13 (Dense)            (None, 64)                4160      
                                                                 
 dense_14 (Dense)            (None, 1)                 65        
                                                                 
=================================================================
Total params: 12673 (49.50 KB)
Trainable params: 12673 (49.50 KB)
Non-trainable params: 0 (0.00 Byte)
_________________________________________________________________
None
Model: "model_3"
_________________________________________________________________
 Layer (type)                Output Shape              Param #   
=================================================================
 input_4 (InputLayer)        [(None, 1)]               0         
                                                                 
 dense_15 (Dense)            (None, 64)                128       
                                                                 
 dense_16 (Dense)            (None, 64)                4160      
                                                                 
 dense_17 (Dense)            (None, 64)                4160      
                                                                 
 dense_18 (Dense)            (None, 64)                4160      
                                                                 
 dense_19 (Dense)            (None, 1)                 65        
                                                                 
=================================================================
Total params: 12673 (49.50 KB)
Trainable params: 12673 (49.50 KB)
Non-trainable params: 0 (0.00 Byte)
_________________________________________________________________
None
Model: "model_4"
_________________________________________________________________
 Layer (type)                Output Shape              Param #   
=================================================================
 input_5 (InputLayer)        [(None, 1)]               0         
                                                                 
 dense_20 (Dense)            (None, 64)                128       
                                                                 
 dense_21 (Dense)            (None, 64)                4160      
                                                                 
 dense_22 (Dense)            (None, 64)                4160      
                                                                 
 dense_23 (Dense)            (None, 64)                4160      
                                                                 
 dense_24 (Dense)            (None, 1)                 65        
                                                                 
=================================================================
Total params: 12673 (49.50 KB)
Trainable params: 12673 (49.50 KB)
Non-trainable params: 0 (0.00 Byte)
_________________________________________________________________
None
Model: "model_5"
_________________________________________________________________
 Layer (type)                Output Shape              Param #   
=================================================================
 input_6 (InputLayer)        [(None, 1)]               0         
                                                                 
 dense_25 (Dense)            (None, 64)                128       
                                                                 
 dense_26 (Dense)            (None, 64)                4160      
                                                                 
 dense_27 (Dense)            (None, 64)                4160      
                                                                 
 dense_28 (Dense)            (None, 64)                4160      
                                                                 
 dense_29 (Dense)            (None, 1)                 65        
                                                                 
=================================================================
Total params: 12673 (49.50 KB)
Trainable params: 12673 (49.50 KB)
Non-trainable params: 0 (0.00 Byte)
_________________________________________________________________
None
Model: "model_6"
_________________________________________________________________
 Layer (type)                Output Shape              Param #   
=================================================================
 input_7 (InputLayer)        [(None, 1)]               0         
                                                                 
 dense_30 (Dense)            (None, 64)                128       
                                                                 
 dense_31 (Dense)            (None, 64)                4160      
                                                                 
 dense_32 (Dense)            (None, 64)                4160      
                                                                 
 dense_33 (Dense)            (None, 64)                4160      
                                                                 
 dense_34 (Dense)            (None, 1)                 65        
                                                                 
=================================================================
Total params: 12673 (49.50 KB)
Trainable params: 12673 (49.50 KB)
Non-trainable params: 0 (0.00 Byte)
_________________________________________________________________
None
Model: "model_7"
_________________________________________________________________
 Layer (type)                Output Shape              Param #   
=================================================================
 input_8 (InputLayer)        [(None, 1)]               0         
                                                                 
 dense_35 (Dense)            (None, 64)                128       
                                                                 
 dense_36 (Dense)            (None, 64)                4160      
                                                                 
 dense_37 (Dense)            (None, 64)                4160      
                                                                 
 dense_38 (Dense)            (None, 64)                4160      
                                                                 
 dense_39 (Dense)            (None, 1)                 65        
                                                                 
=================================================================
Total params: 12673 (49.50 KB)
Trainable params: 12673 (49.50 KB)
Non-trainable params: 0 (0.00 Byte)
_________________________________________________________________
None
Model: "model_8"
_________________________________________________________________
 Layer (type)                Output Shape              Param #   
=================================================================
 input_9 (InputLayer)        [(None, 1)]               0         
                                                                 
 dense_40 (Dense)            (None, 64)                128       
                                                                 
 dense_41 (Dense)            (None, 64)                4160      
                                                                 
 dense_42 (Dense)            (None, 64)                4160      
                                                                 
 dense_43 (Dense)            (None, 64)                4160      
                                                                 
 dense_44 (Dense)            (None, 1)                 65        
                                                                 
=================================================================
Total params: 12673 (49.50 KB)
Trainable params: 12673 (49.50 KB)
Non-trainable params: 0 (0.00 Byte)
_________________________________________________________________
None
Model: "model_9"
_________________________________________________________________
 Layer (type)                Output Shape              Param #   
=================================================================
 input_10 (InputLayer)       [(None, 1)]               0         
                                                                 
 dense_45 (Dense)            (None, 64)                128       
                                                                 
 dense_46 (Dense)            (None, 64)                4160      
                                                                 
 dense_47 (Dense)            (None, 64)                4160      
                                                                 
 dense_48 (Dense)            (None, 64)                4160      
                                                                 
 dense_49 (Dense)            (None, 1)                 65        
                                                                 
=================================================================
Total params: 12673 (49.50 KB)
Trainable params: 12673 (49.50 KB)
Non-trainable params: 0 (0.00 Byte)
_________________________________________________________________
Keras Uncertainty will use standalone Keras backendNone
The results will be saved in results/sinus: first real try GREEDY tuned (1)
…
